lightning_logs/version_0/checkpoints/epoch=5-step=102.ckpt (torch, 775877 bytes, 23 tensors)

classifier.conv_time.weight f4 [40, 1, 25, 1]
000000 88 02 ff bc 05 1f bb 3b a5 a6 ae 3c a6 e3 52 bd
       -0.031129137 0.005710485 0.021319697 -0.051486634
000010 28 3c 94 3d 4d 3f 74 bb b6 04 10 bd cf 3c 95 3d
       0.072380364 -0.0037269176 -0.035160743 0.07286989
000020 67 fb 78 3d f6 8a 41 bc e6 db 83 3c fb d7 42 3d
       0.06078663 -0.011812916 0.016096067 0.047569256
000030 c1 ba 53 3d 81 56 72 3c c7 30 4a bd e2 14 4b bd
       0.051691774 0.014791132 -0.049362924 -0.049580462
000040 60 02 4d 3c fa 72 fc bb d9 ff 3f bd fa dd a5 3c
       0.012512773 -0.007704136 -0.046874855 0.020247448
000050 8d a3 8a 3d 10 c9 c1 3c 9e 4e 9f bc 09 0e de bc
       0.06769476 0.023655444 -0.019446667 -0.027106302
000060 8b 69 51 3d 20 e6 26 3c 5a 03 28 bd c3 2f c3 3b
       0.051126044 0.010186702 -0.04101882 0.0059566214
000070 b7 e5 d9 3c 0c d5 e2 bc 21 4f ce 39 6f 3b 10 bc
       0.026598794 -0.02768948 0.00039350337 -0.008803233
000080 23 8b ac 3c 74 80 14 bc 13 27 6d bc b4 74 1d 3c
       0.02106244 -0.009063829 -0.014474648 0.009610344
000090 b9 1b a9 3c de 50 5f 3d 74 a4 84 bd 4e a7 13 3d
       0.020643102 0.05452048 -0.064766794 0.036048226
0000a0 80 96 af bc 49 85 81 3d 8a 20 14 3c da 8f 61 bd
       -0.021434069 0.0632425 0.009040961 -0.05506883
0000b0 34 ec 55 3a 0a 23 bc 3c ea 7a 26 bc 7f 16 03 3d
       0.0008160502 0.022965927 -0.010161141 0.032003876
0000c0 5b 73 19 3d 14 df 71 3d 73 ad d1 3b 52 37 cf 3c
       0.037463527 0.059050635 0.0063988506 0.025294933
0000d0 bd a2 f7 bc 39 4b 04 3d e4 2f 9f bd 50 f1 b9 bc
       -0.030228967 0.0322983 -0.07772806 -0.022698075
0000e0 ac 86 13 bc 12 c5 8a 3d 97 bb 8b bd 19 51 c5 3a
       -0.009004276 0.067758694 -0.06822889 0.0015054076
0000f0 ca 21 89 bd 4a ab 97 bd 1a 24 af 3c 6e 40 e3 3c
       -0.06695898 -0.07405718 0.02137952 0.027740683
000100 12 78 29 bc 1c 58 a1 3c 65 cc 17 bd e1 56 8e bc
       -0.010343568 0.019695334 -0.03706016 -0.017375411
000110 f4 85 1a 3d 0b 36 33 bc f2 66 0f bb 21 1b 0b bd
       0.037725404 -0.010938178 -0.0021881429 -0.03396142
000120 3e 59 70 3d 06 30 1f 3d e5 93 91 bd aa 95 0e 3d
       0.058678858 0.038864158 -0.07108287 0.0348107
000130 22 b0 99 3c fe d3 3b 3d fb 7a 2a 3d 89 79 68 bd
       0.018760744 0.04585647 0.04162119 -0.05675653
000140 c3 83 15 bc 30 a1 09 bc a9 93 ca 3c a9 64 08 3d
       -0.009125653 -0.0084002465 0.024728613 0.033299122
000150 e3 02 9c bb ea 53 80 3c 4b 32 62 3d c4 34 22 bc
       -0.0047610863 0.015665013 0.055223744 -0.009900276
000160 a5 4d 33 3d 85 7b 80 bc 54 22 8c bd 85 81 f7 3c
       0.04377522 -0.015683899 -0.06842485 0.030213127
000170 f2 a4 06 bd 60 aa 4a 3d 82 4d 1c bd e0 f2 c0 3c
       -0.032872148 0.04947889 -0.038159855 0.023553312
000180 2d d6 10 bd 20 9c 44 3d 90 3c 68 3d 47 55 24 bd
       -0.035360504 0.048000455 0.056698382 -0.04012039
000190 ea ba d3 3c 46 da 39 bd b9 a2 07 3c 6b a4 ae bc
       0.025845964 -0.045374177 0.008278542 -0.021318635
0001a0 95 7f 58 3d ac 58 f6 3c 75 d5 47 bc 45 d2 18 bd
       0.052856047 0.030071579 -0.012196888 -0.037309904
0001b0 62 3a 54 3d ee 2f 97 3c 0b ae 8a 3d e2 aa 1a 3d
       0.05181349 0.018455472 0.06771477 0.037760623
0001c0 07 ea 70 bd b8 6b a0 bc 96 a9 82 3d 1f b1 66 bd
       -0.058816936 -0.019582614 0.06380002 -0.05632126
0001d0 a0 ed e1 3c 09 18 60 3d 8f 8c 7b bc 73 21 03 bd
       0.027579129 0.05471042 -0.015353336 -0.03201432
0001e0 b1 00 5e 3c c5 ad 26 3d 02 b8 98 3d 9e 0f 89 bd
       0.0135499695 0.040693063 0.07456972 -0.06692432
0001f0 f8 14 46 bc 4a 44 72 bd a0 6c ff bc 2d c4 16 bd
       -0.01208996 -0.059147157 -0.031179726 -0.03680818
000200 bf ff 73 3d 49 63 df bb 29 95 3b 3d 57 80 00 bb
       0.05957007 -0.0068172556 0.045796547 -0.0019607747
000210 25 0f 87 bc 81 71 0e 3d 48 4d 95 bd 0c ca 93 3d
       -0.016486714 0.034776215 -0.07290131 0.07216272
000220 fc 81 5f bc ce 3c 67 3d 71 f8 1e bd e3 1c 2f bd
       -0.0136418305 0.056454472 -0.03881115 -0.042752158
000230 fe 86 6c bb 8d aa 8c bd d3 83 82 bd 27 3b 2e bd
       -0.0036091204 -0.068684675 -0.063728 -0.04253688
000240 59 80 8d 3b a3 53 68 bd 31 13 e8 3c 97 1f 5b 3d
       0.0043182787 -0.056720387 0.028329464 0.053496923
000250 67 b7 65 bd c0 ac 90 3c 89 53 1f 3d f2 c1 8f 3b
       -0.05608311 0.017660499 0.038898025 0.0043871338
000260 dd 82 c0 bb e4 03 6a 3d a3 57 00 3d 57 d2 76 3d
       -0.005874975 0.057132617 0.031333577 0.06025919
000270 65 f2 14 bd 96 8c a1 bd f2 49 ab 3c d8 95 5d 3d
       -0.036363978 -0.07888143 0.020909283 0.05409798
000280 91 78 25 3d e4 3d dd 3b ba a3 a7 bc 38 14 70 bd
       0.040398184 0.0067517627 -0.020463813 -0.058613032
000290 4c bb 9c bd c3 cf 2e 3d d2 c1 81 3d 31 1f e7 3c
       -0.076529115 0.042678606 0.063357964 0.028213115
0002a0 93 ea 28 bd 2b c7 11 bd 67 88 d0 3c 98 78 ab 3c
       -0.041239332 -0.035590332 0.025455667 0.020931527
0002b0 37 53 70 bd b2 ef 41 bd f7 80 79 3d 5e 98 9d bc
       -0.05867311 -0.047347732 0.060914006 -0.019237693
0002c0 0a 7a 0c bc 87 87 41 bd c8 e2 cf bc c2 bb 07 3c
       -0.008574018 -0.04724839 -0.025376692 0.008284511
0002d0 df f0 0d 3b 2d 9b 33 bd d7 e5 12 3d 28 e3 27 bc
       0.0021658463 -0.04384916 0.035863724 -0.010247029
0002e0 65 30 d1 bc 45 04 19 bd b5 3a 15 3d a6 e4 a1 3d
       -0.025535772 -0.037357587 0.03643294 0.07904939
0002f0 bc d7 3a 3c a1 7e 1b 3d 89 c4 1f 3c 4a f3 8c bb
       0.011403974 0.03796256 0.0097514475 -0.0043014633
000300 a6 50 99 3d b7 e7 38 bc 4e af 79 bd 56 e9 05 bd
       0.074860856 -0.011285714 -0.0609582 -0.03269323
000310 c5 a8 98 3d f0 a1 93 bc 10 09 98 3d f7 1b a4 bc
       0.07454065 -0.018021554 0.074236035 -0.020032866
000320 7e 14 01 3d 90 81 50 3d c0 0d 44 bd ac 9f 64 3c
       0.031513683 0.05090481 -0.047864676 0.013954084
000330 ad fc 51 bd 8f ad d7 3c 4c 00 c1 bc 04 cd c4 3c
       -0.05126636 0.026327876 -0.023559712 0.02402354
000340 0a 3a 50 3c 55 93 c4 3c 97 5d a5 bc 92 2c d1 3b
       0.01270915 0.023996035 -0.020186229 0.006383487
000350 e4 90 3d bd 7f b9 97 3c dc d8 8c bd e2 dd 29 bd
       -0.046280757 0.018521069 -0.068773 -0.04147137
000360 65 41 f2 3b 38 f2 1b 3d e3 a4 8e 3d fe ef 0c 3d
       0.0073930495 0.038072795 0.069650434 0.034408562
000370 71 21 3d 3d f3 46 84 bd af 9d 36 bd 75 8f 8c 3d
       0.04617447 -0.06458845 -0.044583973 0.068633
000380 22 ce 5a 3d 94 72 56 3c 60 b6 c2 3c c9 26 8d 3d
       0.05341924 0.013088841 0.023768604 0.06892163
000390 73 30 a7 3c 78 3b 37 3d d4 76 2c 3d 28 93 22 bd
       0.020408845 0.04473445 0.04210551 -0.03969112
0003a0 d8 52 38 3c 15 4f f9 3c 4f c3 8b 3d a2 8b 11 3d
       0.01125022 0.030433217 0.068243615 0.035533555
0003b0 70 d1 02 3d 93 c0 0a bd ef 17 9c 3d 3a e3 d0 ba
       0.031938016 -0.03387506 0.076217525 -0.0015936859
0003c0 a2 6c 27 3d 25 47 57 bd 5e 6c 80 bd fc cf 01 3d
       0.040875085 -0.052558083 -0.062706694 0.03169249
0003d0 c5 47 0b 3d 91 58 f5 3c 68 4e 94 bd e5 c8 4a 3d
       0.03400399 0.029949458 -0.07241517 0.049507994
0003e0 4d dc 95 bd a3 9e 2c 3d 79 59 99 3c 77 c7 7b bd
       -0.0731741 0.042143475 0.018719422 -0.06146952
0003f0 b9 eb 2b bd 44 a0 95 3c 67 e8 14 bd db ad 30 3d
       -0.04197285 0.018264897 -0.03635445 0.04313455

classifier.conv_time.bias f4 [40]
000000 51 45 04 3c f6 29 d6 bb ff 71 22 39 9f 2c d2 bb
       0.008073167 -0.006535764 0.00015491991 -0.0064140107
000010 a4 42 04 bc a7 4a 61 3b ae bb 61 3b a7 ea b2 ba
       -0.008072529 0.0034376772 0.0034444141 -0.0013650254
000020 8a 5e 8b 37 d2 d9 11 bb fa 56 19 bc 9d ac a8 b8
       1.6614114e-05 -0.0022255075 -0.009359116 -8.043016e-05
000030 28 1d 87 bb 9f c2 f1 3b df d3 1a 39 5c 2d 70 bb
       -0.0041233487 0.007377937 0.00014765513 -0.003664813
000040 84 fb 0e 3b ab ef 92 bb cd f6 e5 bb d3 35 90 3a
       0.0021817395 -0.004484137 -0.0070179463 0.0011002369
000050 e7 50 24 bb 82 1b 11 3c 14 38 00 bc 29 53 d0 bb
       -0.0025072636 0.008856656 -0.00782587 -0.0063575697
000060 ae 57 5c bc e9 57 0e 3b 30 a2 d3 ba c0 a9 a8 3b
       -0.013448639 0.002171988 -0.0016146358 0.005147189
000070 3c b3 3d 3b fe 27 9a ba 1e 27 17 bb b6 bc c9 bb
       0.0028945943 -0.0011761186 -0.0023064087 -0.0061565293
000080 97 01 a7 ba cc 3a 5d 3b 43 7b 14 bb b8 1e 7a 3a
       -0.0012741563 0.003375697 -0.0022656478 0.00095413206
000090 5b 7b af 3a 40 fd 80 bb 90 0e e6 3a 3b cf 2a 3b
       0.0013388203 -0.0039364398 0.0017551947 0.002606346

classifier.conv_spat.weight f4 [40, 40, 1, 36]
000000 74 2a e5 3c 80 bd 9c 3c 8d 68 38 bc 13 2c 1b 3c
       0.027974345 0.01913333 -0.011255396 0.009470957
000010 c8 48 a5 3c 75 01 98 3c b2 9c 2d bd 88 62 b7 bb
       0.020176306 0.018555382 -0.042385764 -0.0055964626
000020 0a 48 89 bc ef 69 27 bd 5e 35 37 3b 5b cd 95 3c
       -0.016757984 -0.04087251 0.0027955393 0.018286398
000030 00 84 7b bc 62 db 13 bd 73 bf 02 bd 1f db 19 bc
       -0.0153512955 -0.03609789 -0.03192086 -0.009390621
000040 f8 76 36 3d 0a d7 0b 3d c6 9d 13 bc dd 5a 89 bb
       0.04454705 0.034140624 -0.009009784 -0.00419174
000050 86 88 e0 bc c2 32 08 bd 3c e4 fe bc 3f 49 2e bd
       -0.02740885 -0.03325153 -0.03111469 -0.04255032
000060 8c b9 0f 3d d0 d5 0c bd af d4 66 bc 3a d3 1b bc
       0.03508906 -0.034383595 -0.014088794 -0.00951081
000070 1c a9 d3 bc 1b 44 0d 3d 21 c2 21 3d f4 82 13 3d
       -0.025837474 0.03448878 0.039491776 0.03601356
000080 d9 67 50 bc 8b 5d 1b bd 08 3f 63 3c 9b e1 38 bd
       -0.012720072 -0.037931006 0.013870008 -0.04513703
000090 53 0e 18 bc 05 2d 2b 3d 91 29 08 bd 11 19 d5 3c
       -0.009280759 0.04179098 -0.033242766 0.02601293
0000a0 4c e4 c2 bc 23 f9 d8 bc 5f 43 36 3c a9 ca 12 3d
       -0.023790501 -0.026485985 0.011124461 0.035837803
0000b0 71 6d 94 bc c6 ed fb bc bc b7 2a 3c 2a ab 8d 3c
       -0.018118592 -0.030753028 0.010419782 0.017293531
0000c0 aa 3e 02 bd 03 e2 1f bd bb 4a 15 3d dd d9 f7 bc
       -0.031798042 -0.0390339 0.03644822 -0.030255252
0000d0 f6 e6 1b 3c 8d 86 19 bd b5 01 32 3b 2a 5a 42 3d
       0.009515515 -0.037481833 0.0027161662 0.04744927
0000e0 a8 83 9d bb df 5d e3 3c 76 74 40 bc e0 85 cb bb
       -0.0048069544 0.027754722 -0.011746516 -0.0062110275
0000f0 4e 27 b9 3c 2b 1b 39 3c 49 fa 11 3d 9d 86 8c 3c
       0.02260175 0.011297981 0.03563908 0.017154032
000100 ea d5 d4 3c f7 d1 a9 bc 0a 42 1e 3c 26 02 83 3c
       0.025980908 -0.020730002 0.0096593 0.015992235
000110 a7 37 16 bd 27 c9 06 3d 4c da b9 bb 68 16 11 bd
       -0.036674168 0.032906678 -0.005671775 -0.03542176
000120 a8 c0 dd bb d7 b2 f4 3c 7c 8e 7b bb 0d bc c4 bc
       -0.006767351 0.029870434 -0.0038384488 -0.02401545
000130 16 db 15 bd f2 8b de bc bc 6c 4f 3d 10 99 d3 3c
       -0.03658589 -0.02716634 0.050640807 0.025829822
000140 fa a7 f1 3c c1 99 22 bc 78 e4 1c 3d ab da f1 bc
       0.029499043 -0.009924353 0.038303822 -0.029523214
000150 45 85 02 3c 78 d6 ab 3c e7 05 a0 bc a2 30 c0 bc
       0.007966344 0.02097629 -0.019534064 -0.02346069
000160 7c f1 a3 ba 18 ce e8 bb ec 77 ad bc 37 0a 0d bd
       -0.0012507881 -0.0071046464 -0.021175347 -0.03443357
000170 55 b0 a7 bc 18 fc 02 3c 26 5f d1 3a 99 03 0c bd
       -0.020469824 0.007994674 0.0015973791 -0.03418312
000180 fb 7e 00 3d 53 93 03 3d f1 f3 14 3c 92 22 a8 bc
       0.031371098 0.03212292 0.009091363 -0.020524297
000190 5d 57 f8 3b a7 e4 a9 bc d1 ab 80 3c 3d 9b 2b bd
       0.007578774 -0.020738913 0.015706928 -0.041896094
0001a0 15 e2 a1 ba f7 64 1d bb 73 33 50 bc 47 e8 26 3d
       -0.0012350703 -0.0024016479 -0.012707579 0.04074886
0001b0 61 f1 02 bc 0b 79 d1 bb 84 a4 01 3d 23 44 d7 3c
       -0.0079921195 -0.0063926033 0.031651035 0.026277607
0001c0 0a b0 d6 bc ed 1f 6a 3b 0b a9 f4 3c a6 9e a7 bc
       -0.026206989 0.0035724596 0.029865762 -0.020461392
0001d0 60 44 f0 bc e0 4e 88 bc 85 1e 2f 3d f0 2b e2 bc
       -0.029329479 -0.016639173 0.042753715 -0.027608842
0001e0 de 0f 11 3d 8d 5f af 3c be 42 93 bc f6 da a4 3c
       0.035415523 0.021407867 -0.017976161 0.02012394
0001f0 d9 3a 21 bd 85 47 34 bd a2 ee 4f 3d 22 5e 02 3d
       -0.039362762 -0.04401352 0.050764687 0.031828053
000200 15 42 30 3b 89 d2 fe bc 9d c6 1f 3d 4e 1f e9 3c
       0.0026894857 -0.03110625 0.03900777 0.02845731
000210 37 08 17 3d 3c 33 19 bd 82 ee 14 3c 07 28 10 bd
       0.03687307 -0.037402377 0.009090068 -0.035194423
000220 d0 c5 af bc 0b fd 57 ba b5 81 b5 bc f1 05 a4 bc
       -0.021456629 -0.00082393055 -0.022156576 -0.020022364
000230 07 00 b5 bc 8e 26 26 bd b2 4a 7e bb 96 52 89 3c
       -0.02209474 -0.040564112 -0.0038801846 0.016763013
000240 e2 26 01 bd 61 05 ed 3c b2 aa 4e 3c cd e5 15 3d
       -0.031531222 0.028933229 0.012613939 0.03659611
000250 86 b6 15 bb a2 c3 cc 3c 10 4c f3 bc a5 a3 3b bc
       -0.0022844388 0.024995629 -0.029699355 -0.01145259
000260 51 74 04 3d 3f f5 3c bc cc 91 28 3d 29 7a fa 3c
       0.03233749 -0.011533081 0.041154668 0.030575829
000270 ca 18 8e 3c 33 3a 00 3b 75 7b 0e bd 71 fb 02 bd
       0.017345805 0.001956594 -0.034785707 -0.031978074
000280 d4 b3 86 bc 0f 0c e4 3c a3 52 2b 3c 13 fb 44 bc
       -0.01644317 0.027837781 0.010456714 -0.012022751
000290 d3 85 cb bc 2c fc 24 3d d2 83 9a bc 07 23 b9 3c
       -0.024844086 0.040279552 -0.018861685 0.02259971
0002a0 8c 52 0e bd 98 d2 dc bc ca 98 d9 bc e9 85 83 bc
       -0.03474669 -0.026955888 -0.026562113 -0.016055064
0002b0 d3 05 38 bd eb a6 c9 3a b6 40 de 3c 8e 1f 2c 3d
       -0.04492743 0.0015384828 0.027130466 0.04202228
0002c0 80 8d e2 3c 84 02 d1 bc 56 18 74 b9 aa 8f c1 bc
       0.027655363 -0.025513895 -0.00023278719 -0.023628075
0002d0 ee ca 9e bc 8c 6a 17 bc 4a 05 b5 bc ec 59 33 bd
       -0.019383874 -0.009241711 -0.022097249 -0.043786928
0002e0 03 75 03 3d 0a dd ef bc a9 8c c2 bc 04 2d 56 3b
       0.032094013 -0.029280204 -0.023748713 0.003268064
0002f0 20 ef f8 bc 30 0c 1a 3d 92 a5 af bc 43 c4 27 bd
       -0.030387461 0.03760928 -0.021441255 -0.040958654
000300 fe 26 3e 3d 22 89 18 bd 76 b0 76 bb 00 9f 2f 3c
       0.046423905 -0.037240155 -0.00376418 0.010719061
000310 11 da 76 bc 5c f3 8b bc a5 53 e2 bc a3 28 76 bc
       -0.0150666395 -0.017083816 -0.027627775 -0.015024337
000320 0e 6b 35 bc fb 1b 80 3c 9f f4 0b 3d 37 ee 8e bb
       -0.011072887 0.015638342 0.034168836 -0.0043618935
000330 37 23 c7 3c ea 5e 9f bb 7c df 6d 3c 08 07 6c 3b
       0.024308784 -0.0048636096 0.014518615 0.0036014933
000340 ef 6e 16 bd bc 37 9d bb fd 25 cb 3c fd 54 ca 3c
       -0.03672689 -0.004797904 0.024798388 0.024698729
000350 c4 c0 31 bd e7 9e 5a bc de fc e1 bc 96 1c 8e 3c
       -0.043396726 -0.013343549 -0.027586397 0.017347615
000360 28 99 37 bd 77 da 45 3b b8 bf 8a bc 3f de 3f 3d
       -0.044823796 0.003019003 -0.016937122 0.04684281
000370 f9 1d 17 bd 24 d8 be bc 50 cf df bc d1 0e d7 bc
       -0.03689382 -0.023296423 -0.027320534 -0.026252182
000380 69 ab 2b 3c 9a 7b 01 3d 4c 83 34 3d 4c 51 03 bd
       0.010477879 0.031612016 0.044070527 -0.032059953
000390 9d f1 61 bc b1 09 d3 3c c1 b0 70 39 bd 15 c2 3c
       -0.013790515 0.025761457 0.0002295403 0.023692006
0003a0 da 1a d3 bc d3 0f aa 3c 00 9a 99 bb 73 a5 28 bd
       -0.02576964 0.020759499 -0.0046875477 -0.04117341
0003b0 d0 8c 5e bc 8b 89 1b bd 62 b0 40 bc e2 5c 43 bc
       -0.013583377 -0.037972968 -0.011760803 -0.011924
0003c0 55 54 03 bd e6 bf 35 3d 73 13 1f bc ff 0a 67 bc
       -0.032062847 0.04437246 -0.009709227 -0.014101743
0003d0 b6 e6 05 3d f7 c7 07 3d fc 3d 3f bc 78 18 0f bc
       0.032690726 0.033149686 -0.011672493 -0.008733861
0003e0 a5 76 5e 3c 46 64 64 3c 7b 90 74 3a f9 35 08 3d
       0.013578092 0.013939923 0.00093293906 0.033254597
0003f0 54 52 2b 3b 26 92 26 bb c7 6f e4 bc fa 3e f3 3c
       0.00261416 -0.00254167 -0.02788533 0.029693116

classifier.bnorm.weight f4 [40]
000000 86 bc 76 3f bb a3 86 3f f3 71 74 3f 5a 23 76 3f
       0.96381414 1.0518717 0.9548637 0.9614769
000010 5a d5 7f 3f 64 02 86 3f 50 a5 83 3f 85 c3 76 3f
       0.99934924 1.046948 1.0284824 0.9639209
000020 fa bb 83 3f 35 43 87 3f 21 50 83 3f 93 26 74 3f
       1.0291741 1.0567385 1.0258828 0.9537136
000030 48 98 76 3f d2 d7 74 3f 8a 42 73 3f 1a 70 78 3f
       0.9632611 0.95641816 0.95023406 0.97046053
000040 9e e1 87 3f 63 32 7f 3f 88 1f 7c 3f 14 31 71 3f
       1.0615728 0.9968626 0.9848561 0.9421551
000050 ac 81 75 3f 03 b3 83 3f 7e b3 80 3f a5 6e 82 3f
       0.9590099 1.0289005 1.0054777 1.0190016
000060 d9 25 86 3f 65 c3 70 3f ea 5b 75 3f c0 be 74 3f
       1.04803 0.9404815 0.95843375 0.9560356
000070 00 af 77 3f bc 4f 73 3f 42 0e 87 3f 55 a4 73 3f
       0.96751404 0.9504354 1.0551226 0.95172626
000080 ef 4f 74 3f ec 36 82 3f ea e9 74 3f 0e a9 7c 3f
       0.9543447 1.0173011 0.95669425 0.98695457
000090 b9 29 72 3f 5f fc 7b 3f d0 59 77 3f 8f c0 77 3f
       0.94594914 0.9843196 0.9662142 0.96778196

classifier.bnorm.bias f4 [40]
000000 73 0e 8e b9 bb e6 2c 3c a5 78 27 ba 1a c1 0e 3a
       -0.00027095116 0.010553057 -0.0006388522 0.00054456445
000010 18 0a 55 3b 5d 3e 80 bc 62 f2 35 3c a0 d3 71 3b
       0.0032507237 -0.015654737 0.011105152 0.003689982
000020 47 f6 5f 3c e3 60 63 3c 52 0c 5a bc 93 e7 41 ba
       0.013669557 0.01387808 -0.013308601 -0.0007396873
000030 e1 63 ad bb 7d e7 c7 ba 1f f6 67 39 c6 89 95 bb
       -0.0052914475 -0.0015251484 0.00022121564 -0.004563543
000040 8a 8e a3 3c 30 23 35 3c 3c e2 e0 bb 8c cc 6e 3b
       0.019965429 0.011055753 -0.0068629067 0.0036437837
000050 94 ed d8 bb 38 fe 7d bc d2 b5 14 bc ff f7 40 bc
       -0.0066201184 -0.015502505 -0.009076552 -0.011777877
000060 1d c5 47 3c e9 63 6d 39 dc 8c 8e bb aa 70 61 ba
       0.012192992 0.00022639301 -0.004350288 -0.0008599857
000070 a9 81 bc 3b b9 12 c5 b9 69 18 9e bc 74 2f 15 ba
       0.0057527614 -0.00037588718 -0.019298749 -0.000569097
000080 8e 60 d1 3a 78 7f 3b 3c 50 d2 0e 3b 0c 2e 24 3c
       0.001597421 0.011443965 0.0021792836 0.010020744
000090 b9 a4 94 ba 11 86 d1 bb 7a 40 1d bb 0e db c7 3b
       -0.0011340595 -0.006394156 -0.002399473 0.0060991114

classifier.bnorm.running_mean f4 [40]
000000 e9 9b 3c c0 ca 9f 5f c0 09 39 30 3d 88 d1 55 c0
       -2.947016 -3.4941278 0.043023143 -3.3409138
000010 4b 68 9f be c9 92 5b c0 ea e6 24 c0 07 29 28 40
       -0.31134257 -3.430834 -2.5765939 2.627504
000020 30 2a de 3b f2 0b 4c 3f ce ca 97 40 76 6a fa c0
       0.0067799315 0.7970573 4.7435064 -7.8254957
000030 6b dd b8 c0 6b 93 c1 40 91 50 3a 40 0a 92 c9 c0
       -5.7770286 6.0492454 2.9111674 -6.299077
000040 53 2e 6e c0 c8 a0 50 bd b7 94 c2 be f6 94 e0 40
       -3.7215774 -0.050934583 -0.38004085 7.0181837
000050 c3 98 bb 3f ad 21 76 3f 57 fd c1 40 3d c4 9c 40
       1.4655994 0.96145135 6.0621753 4.898955
000060 ca 17 de 3f 75 1b 74 41 df 4a b5 c0 cf 0c 09 3e
       1.735101 15.256703 -5.6653895 0.13383792
000070 02 6a 88 bf 3c cf 08 bf bb ce 00 41 49 84 35 40
       -1.0657351 -0.53441215 8.050471 2.836199
000080 2e 7e 66 40 da 3b fc c0 c2 a0 c5 bf 5c cc 9a c0
       3.6014514 -7.882306 -1.5439684 -4.837446
000090 8f 14 1e c1 d6 fa b0 3f 83 85 06 c0 35 0c a3 c0
       -9.880019 1.3826549 -2.101899 -5.09524

classifier.bnorm.running_var f4 [40]
000000 27 42 ca 40 1f 5d eb 3f 1d 30 e5 3e 8d 01 78 3e
       6.320575 1.8387793 0.4476327 0.24219342
000010 a4 ea f3 3f 1b f0 2d 40 08 33 85 3f cf b3 88 3f
       1.9055982 2.7177799 1.0406199 1.0679873
000020 11 8c ac 3f 98 c4 85 40 db 47 a7 3f f5 4d 8a 40
       1.3480245 4.1802483 1.3068804 4.3220162
000030 aa 5d 07 41 b8 2e 28 41 30 fe 89 40 3d ad a8 3f
       8.460367 10.511406 4.3122787 1.3177868
000040 fa fc c6 40 24 10 d4 3f 2c f0 5d 3f 59 5f 54 3f
       6.218381 1.6567426 0.866946 0.8295799
000050 61 cf 64 40 fc a1 77 3f c3 d1 1d 40 0f ef 94 3f
       3.5751574 0.96731544 2.4659278 1.1635455
000060 e2 b5 31 3f 15 d8 86 40 07 41 26 40 7f b5 f4 3f
       0.69418156 4.213877 2.597719 1.9117888
000070 e6 78 b0 3f 9c 67 da 3f 3e 30 ea 40 60 a7 2e 40
       1.3786895 1.7062869 7.318389 2.7289658
000080 96 78 17 40 98 de 7b 40 e8 9b d6 3e bf 79 89 40
       2.366735 3.935461 0.41915822 4.2961116
000090 bf 7a 7a 40 93 d4 36 40 fc 2d e2 3e 83 92 79 3f
       3.9137418 2.8567245 0.44175708 0.97489184

classifier.conv_classifier.weight f4 [2, 40, 61, 1]
000000 93 d9 59 3c f5 01 c5 bc df 1d 3b 3d 3f b9 af bc
       0.013296503 -0.024048785 0.045682784 -0.021450637
000010 7f 63 d8 bc 9e ba 0f 3b d3 d8 e8 3c e6 4a 43 bd
       -0.026414631 0.00219313 0.028423702 -0.04767885
000020 92 6c 1e 3d ed 6d 21 3d cc 5e 43 bd c6 fe ce 3c
       0.03867776 0.039411474 -0.047697827 0.02526797
000030 38 39 3b 3d 14 85 83 bb 5d 3d f5 bc ef c8 0b bd
       0.045708865 -0.004013667 -0.029936487 -0.034127172
000040 04 3f 05 bd b7 2f 55 3c 5c 2d d1 bc 2d 41 c7 bc
       -0.0325308 0.013011864 -0.025534324 -0.02432307
000050 fe 61 2e bd f6 23 0c 3d 03 f3 4c bd 2b 82 10 3d
       -0.04257392 0.034213983 -0.05003644 0.035280388
000060 4b 80 31 bc 18 0b 04 bd 5f 48 fa bc 29 e4 41 3c
       -0.01083381 -0.032237142 -0.030552087 0.011834183
000070 b4 ef 1a 3d f4 53 b4 3c c1 76 bd bc ae 91 98 3c
       0.037826255 0.022012688 -0.023127915 0.018624153
000080 62 fe 0f 3d ca 3c b7 37 19 7a 09 3d f0 4c df bc
       0.035154708 2.1843607e-05 0.033563707 -0.027258366
000090 a7 a0 3e bd 98 9e f8 bc c4 5b 69 bc b9 a3 40 bb
       -0.04653993 -0.03034906 -0.01424307 -0.0029394461
0000a0 4a b0 1c 3d 69 a1 f1 bc d7 99 1c 3d 17 cb 09 3c
       0.03825406 -0.029495912 0.03823265 0.008410237
0000b0 e6 10 fa 3c 45 c5 c9 bc a4 5b 76 bb ad 00 f4 3b
       0.030525636 -0.024630198 -0.0037591243 0.0074463696
0000c0 da dc 43 bc 22 5d 03 bc 30 3f 15 3d e5 b4 10 bd
       -0.011954511 -0.00801781 0.036437213 -0.035328764
0000d0 82 f6 01 bc 9b 66 22 3d d2 41 6b 3c da c9 8f 3c
       -0.007932307 0.039648633 0.0143589545 0.017552305
0000e0 c7 6d 5c bc f6 81 c4 3c 4c da 0e 3d f5 0f d6 bc
       -0.013453907 0.023987751 0.034876153 -0.026130656
0000f0 57 cc ff 3c 64 73 e6 bb 9b 4a 16 3c 8f 80 23 bd
       0.031225367 -0.0070327986 0.009173061 -0.039917525
000100 d1 59 b2 3c 03 f8 3e bd 82 90 23 3d 2f 74 23 bd
       0.021771343 -0.04662324 0.039932735 -0.039905723
000110 5c 3f af 3c 37 bf 2c bd fd a2 26 3c 84 7e 70 bc
       0.021392517 -0.042174544 0.010170695 -0.014678601
000120 72 85 ca 3c 32 3f e8 3c f1 24 4c 3d 6b a9 65 3c
       0.024721835 0.028350446 0.049839918 0.014017443
000130 a3 e6 96 3c 2e 15 2b 3d 1d c3 c8 3c 23 e5 1a ba
       0.018420523 0.041768245 0.0245071 -0.0005908778
000140 ea ed 16 3c b0 84 3f 3d c8 17 1f bd 8b a5 01 3d
       0.009211997 0.0467574 -0.03884104 0.031652015
000150 ac 50 8b bc d1 af eb bc 53 be 13 bd 1a 05 03 3c
       -0.01700624 -0.02877036 -0.03607018 0.007996822
000160 44 8d 83 38 03 28 ce 3c 74 7e 8b 3c 12 56 99 3c
       6.2728795e-05 0.025165563 0.017028071 0.0187178
000170 ff 2e 3f 3d 38 6e 1f bd c0 d5 11 bd 60 69 5f 3b
       0.04667568 -0.038923472 -0.03560424 0.0034089908
000180 2d 9d cb bc cd 32 44 3d 94 47 1a 3d cb 1a 89 3c
       -0.02485522 0.04790001 0.03766592 0.016736409
000190 a5 e7 2b 3d 21 d7 43 3d 92 3d 30 bd 26 cc da bb
       0.04196896 0.047812585 -0.043027468 -0.0066771684
0001a0 4a e8 11 bd 11 d2 36 3c 6a c4 2b 3d 94 66 5c bc
       -0.03562192 0.011158482 0.041935362 -0.013452191
0001b0 62 5b 20 3d 2c cd 17 3d 6b 7e e9 bc bc 48 54 3c
       0.03914965 0.0370609 -0.028502664 0.012956794
0001c0 cb 42 23 3d 3f 9d 02 3d 6e 20 89 3c f1 3a 05 3d
       0.03985862 0.031888243 0.016739096 0.032526914
0001d0 fa 57 cb 3c 93 5f 1b 3d 2f a5 b5 bc 13 ba f2 3c
       0.024822224 0.037932944 -0.022173492 0.029629743
0001e0 f3 2b 98 3c 69 a9 2f 3d c5 f8 d0 bc 48 97 92 bc
       0.018575644 0.04288617 -0.025509248 -0.017894402
0001f0 d2 14 b1 bc 60 2e 3f bc 04 22 dc bc 7e a4 0d bd
       -0.021616373 -0.0116687715 -0.026871689 -0.0345807
000200 2f bf 46 bc a8 50 97 bc b1 fd e7 bc fb 76 15 bc
       -0.012130543 -0.018471077 -0.028319212 -0.009122605
000210 10 52 aa bc 3a c3 15 bc e0 e2 04 3d ba 60 0f 3d
       -0.020791084 -0.009140784 0.032442927 0.035004355
000220 36 56 bc 3c 24 99 ac 3c 49 6d c1 bb 96 1d 1b 3d
       0.022990327 0.021069117 -0.0059029204 0.037870012
000230 c3 72 19 3d 6e 3b 02 3d 64 fb 1c 3d be 1d 8c bc
       0.03746296 0.031794958 0.038325682 -0.017104026
000240 d2 a5 2b 3d f6 d7 24 3d 53 bf 8b 3c ac 5f 83 bc
       0.041906185 0.04024502 0.017059004 -0.01603683
000250 d6 6d 18 3d 24 c5 0b bd a2 1b 27 3b 22 91 50 bb
       0.037214123 -0.034123555 0.0025498648 -0.0031824787
000260 1c 25 c2 bc 1e 06 14 bb 3b a7 eb bc b5 20 cd bc
       -0.023699336 -0.0022586654 -0.028766265 -0.02504001
000270 77 ad 40 bd e1 7a 2c 3b e5 f6 51 bd dc 03 16 bd
       -0.04704043 0.0026318359 -0.051260848 -0.036624774
000280 44 d4 cd bc 92 a3 a7 bb d1 cb a7 bb 13 ce 0c bd
       -0.02512563 -0.0051159346 -0.0051207324 -0.034376215
000290 94 3d e5 39 ce 75 3f bc db 1d 0a bc dd a4 d5 3c
       0.00043724163 -0.011685802 -0.00842997 0.02607959
0002a0 04 b1 31 bc 15 cc 10 bd 01 12 2e bd d2 4e 8f bb
       -0.0108454265 -0.035350878 -0.04249764 -0.00437341
0002b0 1c 4b e0 bc d3 b9 e0 3c ba 17 09 3d 6a 28 01 bb
       -0.027379565 0.027432358 0.033469893 -0.0019707927
0002c0 82 fa 77 3c cd 7f 91 bb 78 fb 19 3c 65 1e a9 3c
       0.015135409 -0.004440284 0.009398334 0.020644376
0002d0 0e 81 d5 bb a1 d8 57 3c e0 a3 ae 3c c6 ac 57 bd
       -0.0065156287 0.013174207 0.021318376 -0.052655004
0002e0 8c b6 9b 3b 80 17 3f bb 2b 64 c2 bb 9e 0a b7 3c
       0.004751986 -0.0029158294 -0.005932351 0.02234393
0002f0 2f 5b 0e bd d1 9a 02 bd 98 4a 24 bd 6e 58 00 bd
       -0.03475493 -0.031885926 -0.0401102 -0.031334333
000300 27 de 9d bb dd d8 42 bd 67 62 9d 3b f2 79 f0 bc
       -0.0048177424 -0.0475701 0.0048029902 -0.029355023
000310 10 40 99 3c c5 04 e5 bb 26 f4 26 bd 71 63 97 3c
       0.018707305 -0.006989094 -0.04076018 0.018480035
000320 e0 dd 00 3d 69 20 f6 3c cd a0 2d bd ee dc a9 3c
       0.031461596 0.030044751 -0.04238968 0.02073523
000330 c3 0c 42 bd 4c 00 32 3c b8 d3 a8 bc d3 02 6f 3c
       -0.04737545 0.010864329 -0.020608768 0.014588076
000340 2f 80 2e 3d f7 f1 1a ba aa 53 57 bc 07 05 47 bd
       0.042602714 -0.00059106894 -0.013142506 -0.04858878
000350 49 c5 28 3d 39 31 24 3c cb b4 88 b9 c3 6b c7 bc
       0.04120377 0.010021501 -0.00026074643 -0.024343377
000360 f9 fb bd 3c ba 0d 3a bc 17 65 d5 bc f7 a6 f3 3c
       0.023191439 -0.011355812 -0.02604918 0.029742701
000370 dd 83 25 bd e4 d9 15 3c 86 14 22 bd db 1f e2 bc
       -0.040408958 0.009146187 -0.039570354 -0.02760308
000380 04 b9 17 bd ba b3 06 bc 93 28 a3 3c 5b a4 01 3c
       -0.03704168 -0.008221561 0.019916808 0.007912721
000390 57 5b 15 bd 13 e7 d7 3c 7f a9 0d bb 2a 18 17 3d
       -0.03646406 0.026355302 -0.002161592 0.03688828
0003a0 35 cc df 3c 96 89 8e 3b fc f5 25 3c 29 44 68 3c
       0.027319053 0.0043498976 0.010129448 0.014176407
0003b0 42 3e 40 bd 28 04 a1 bc a5 16 57 3c 83 4d c0 3c
       -0.046934374 -0.019655302 0.0131279575 0.02347446
0003c0 b2 d6 86 3b a5 3c bd 3c ba 7c 55 bd 23 57 a1 3b
       0.004114949 0.023100207 -0.0521209 0.0049237176
0003d0 6f c5 97 3c cf a4 30 bd a8 78 d1 3c e1 72 b5 3c
       0.01852676 -0.043125924 0.025570229 0.022149505
0003e0 27 14 a9 3c 08 36 30 bc 08 15 83 3c 93 63 70 3c
       0.020639492 -0.01075507 0.01600124 0.014672178
0003f0 f7 2c 17 bc 77 10 82 bc f7 c8 f4 39 b9 51 be bc
       -0.009227029 -0.015876992 0.00046689037 -0.023232328

classifier.conv_classifier.bias f4 [2]
000000 79 22 50 3d 7a 22 50 bd
       0.050814126 -0.05081413

exp_avg f4 [40, 1, 25, 1]
000000 61 41 df 3e 11 3c df 3e e3 12 df 3e 30 08 df 3e
       0.43604568 0.43600515 0.43569097 0.43560934
000010 40 ec de 3e 70 08 df 3e a7 ff de 3e 95 d2 de 3e
       0.4353962 0.43561125 0.43554422 0.43520036
000020 ac e1 de 3e 10 97 de 3e b6 a0 de 3e e5 b1 de 3e
       0.4353155 0.43474627 0.43481988 0.43495098
000030 7b 52 de 3e bf 90 de 3e d7 5b de 3e 4e 61 de 3e
       0.43422303 0.43469808 0.43429443 0.43433613
000040 71 67 de 3e cb 69 de 3e 45 44 de 3e c5 58 de 3e
       0.43438295 0.4344009 0.4341146 0.434271
000050 58 76 de 3e 8b 53 de 3e 6a 73 de 3e a5 ae de 3e
       0.43449664 0.43423113 0.4344743 0.43492618
000060 93 99 de 3e 40 81 80 be 35 72 80 be a7 3c 80 be
       0.43476543 -0.2509861 -0.25087133 -0.25046274
000070 4f 6c 80 be fc 58 80 be 48 75 80 be bf 88 80 be
       -0.25082633 -0.2506789 -0.25089478 -0.2510433
000080 c1 7c 80 be cb a4 80 be eb 9f 80 be a4 ec 80 be
       -0.2509518 -0.25125727 -0.25122008 -0.25180542
000090 ba 02 81 be 32 ec 80 be b4 37 81 be 3a 30 81 be
       -0.25197393 -0.25180203 -0.2523781 -0.25232106
0000a0 a1 32 81 be 78 4c 81 be 92 4b 81 be e8 73 81 be
       -0.2523394 -0.25253654 -0.25252968 -0.25283742
0000b0 d0 69 81 be 05 47 81 be 88 2f 81 be 45 23 81 be
       -0.2527604 -0.25249496 -0.25231576 -0.2522222
0000c0 86 2e 81 be 50 11 81 be 7d af cc be a3 b1 cc be
       -0.25230807 -0.2520852 -0.39977637 -0.39979276
0000d0 5a 8b cc be 48 c9 cc be 9d df cc be bb 22 cd be
       -0.39950067 -0.39997315 -0.40014353 -0.4006556
0000e0 39 50 cd be ad 4e cd be a3 79 cd be 86 3f cd be
       -0.40100268 -0.40099087 -0.40131864 -0.40087527
0000f0 2f 81 cd be 88 78 cd be ac 1d cd be 04 6c cd be
       -0.40137622 -0.4013102 -0.400617 -0.40121472
000100 ff 35 cd be 2a 24 cd be 9c 57 cd be 6b 6b cd be
       -0.40080258 -0.40066653 -0.40105903 -0.40121016
000110 e5 96 cd be 55 88 cd be b9 79 cd be 53 45 cd be
       -0.40154186 -0.40143076 -0.4013193 -0.40091953
000120 4c 27 cd be 6b 3e cd be cc 01 cd be ce 4e 80 be
       -0.40069044 -0.40086684 -0.40040433 -0.25060123
000130 ed 49 80 be e3 54 80 be 7e 3c 80 be c6 4f 80 be
       -0.250564 -0.25064763 -0.25046152 -0.25060862
000140 ae 4b 80 be 63 6b 80 be 46 9f 80 be f7 86 80 be
       -0.2505774 -0.2508193 -0.25121516 -0.2510297
000150 28 ab 80 be 25 d3 80 be 62 c0 80 be db fa 80 be
       -0.25130582 -0.2516109 -0.25146776 -0.25191388
000160 b9 e8 80 be 9f 03 81 be 18 37 81 be 99 2d 81 be
       -0.25177553 -0.25198075 -0.25237346 -0.252301
000170 13 54 81 be 0d 7b 81 be 33 91 81 be 4c 98 81 be
       -0.25259456 -0.25289193 -0.2530609 -0.25311506
000180 d8 bd 81 be 6c 9b 81 be 2e 82 81 be 38 8d 81 be
       -0.25340152 -0.2531389 -0.25294632 -0.25303054
000190 5c b3 d5 3e 05 97 d5 3e f4 b6 d5 3e 2d 87 d5 3e
       0.41738403 0.4171678 0.41741145 0.41704693
0001a0 aa 86 d5 3e 33 6c d5 3e f9 60 d5 3e 81 79 d5 3e
       0.41704303 0.41684112 0.41675547 0.41694263
0001b0 0e 8c d5 3e a4 c3 d5 3e fd 7b d5 3e 0c 90 d5 3e
       0.41708416 0.41750824 0.41696158 0.41711462
0001c0 90 bf d5 3e f4 66 d5 3e f0 a5 d5 3e 80 90 d5 3e
       0.41747713 0.4168011 0.41728163 0.41711807
0001d0 34 a7 d5 3e 14 b8 d5 3e 3d 97 d5 3e b1 a3 d5 3e
       0.41729128 0.41742003 0.41716948 0.4172645
0001e0 c0 cf d5 3e f9 cd d5 3e 72 f3 d5 3e e0 b8 d5 3e
       0.41760063 0.41758707 0.41787297 0.4174261
0001f0 e3 d2 d5 3e 36 17 88 3d ac 37 88 3d 3f 20 88 3d
       0.41762456 0.06645052 0.066512436 0.066467755
000200 66 b9 88 3d 55 76 88 3d 78 6b 88 3d 7f 5a 88 3d
       0.06675987 0.06663195 0.06661123 0.06657886
000210 d2 72 88 3d cf 1e 88 3d 76 f4 86 3d 11 d9 87 3d
       0.06662525 0.06646501 0.06589596 0.06633199
000220 06 f6 86 3d 99 ca 86 3d 53 26 87 3d 4c 72 86 3d
       0.06589894 0.06581611 0.06599107 0.06564769
000230 68 22 87 3d c8 b1 86 3d 7f 11 86 3d 11 05 87 3d
       0.06598359 0.06576878 0.06546306 0.06592763
000240 ee cf 86 3d 62 a8 86 3d 80 bf 86 3d ee b1 86 3d
       0.06582628 0.06575085 0.065794945 0.06576906
000250 5a 57 87 3d cf e1 87 3d 58 14 fd 3d 41 a9 fc 3d
       0.06608458 0.066348664 0.12357396 0.1233697
000260 72 63 fc 3d 6c 3f fc 3d 0c c3 fc 3d 80 42 fd 3d
       0.12323655 0.12316784 0.1234189 0.123661995
000270 a0 bb fd 3d c0 f7 fd 3d b2 6e fe 3d f4 6c ff 3d
       0.12389302 0.1240077 0.12423457 0.12471953
000280 e9 a6 ff 3d b3 6f 00 3e a6 ab 00 3e fd ff 00 3e
       0.124830075 0.1254261 0.12565479 0.12597652
000290 ee 7f 01 3e 49 88 01 3e d2 fd 01 3e b3 7e 02 3e
       0.12646458 0.12649645 0.12694481 0.12743644
0002a0 37 89 02 3e 61 9e 02 3e e6 cc 02 3e d7 be 02 3e
       0.12747656 0.1275573 0.12773475 0.12768112
0002b0 1e b8 02 3e 61 94 02 3e ce 63 02 3e 68 10 67 3e
       0.12765548 0.12751915 0.12733385 0.22564852
0002c0 d3 1f 67 3e 26 ec 66 3e b5 a0 66 3e 60 ae 66 3e
       0.22570734 0.22551021 0.22522242 0.22527456
0002d0 ff 33 66 3e 18 3e 66 3e 94 86 66 3e 8f df 65 3e
       0.22480772 0.22484624 0.22512275 0.22448562
0002e0 20 30 66 3e 8a 52 66 3e d8 34 66 3e 3a d7 66 3e
       0.22479296 0.22492424 0.22481096 0.2254304
0002f0 f7 9e 66 3e 07 b5 66 3e 0f d0 66 3e 53 2e 66 3e
       0.22521578 0.22529994 0.22540306 0.22478609
000300 6d e5 65 3e a6 dc 65 3e 1d 9c 65 3e b7 1b 65 3e
       0.224508 0.22447452 0.22422834 0.22373854
000310 c6 00 65 3e 64 1b 65 3e 03 15 65 3e 60 e2 64 3e
       0.22363576 0.2237373 0.22371297 0.2235198
000320 6a c0 d0 3e b0 cb d0 3e fe a1 d0 3e 63 b9 d0 3e
       0.407718 0.407804 0.4074859 0.4076644
000330 2a c3 d0 3e 7f c6 d0 3e ce ca d0 3e a3 c2 d0 3e
       0.40773898 0.4077644 0.40779728 0.40773496
000340 96 d3 d0 3e b8 ca d0 3e 2a d7 d0 3e cc d8 d0 3e
       0.40786427 0.40779662 0.40789157 0.40790403
000350 7b 9b d0 3e 74 b7 d0 3e 83 92 d0 3e c7 82 d0 3e
       0.40743622 0.40764964 0.4073678 0.40724775
000360 16 b8 d0 3e bf c2 d0 3e bf d4 d0 3e 23 dd d0 3e
       0.40765446 0.4077358 0.40787312 0.40793714
000370 53 e1 d0 3e ef dc d0 3e b9 c2 d0 3e 5f eb d0 3e
       0.4079691 0.4079356 0.40773562 0.40804574
000380 a5 d7 d0 3e 1f c6 c0 be 60 c0 c0 be 1c ea c0 be
       0.40789524 -0.37651154 -0.3764677 -0.3767861
000390 7f 06 c1 be 26 da c0 be d1 11 c1 be 69 07 c1 be
       -0.3770027 -0.37666434 -0.37708905 -0.37700966
0003a0 f7 f1 c0 be 96 06 c1 be 07 fa c0 be 81 0a c1 be
       -0.37684605 -0.37700337 -0.37690756 -0.37703326
0003b0 e6 2d c1 be dc 12 c1 be 55 52 c1 be 88 17 c1 be
       -0.3773033 -0.377097 -0.37758127 -0.37713265
0003c0 d1 1f c1 be 61 2d c1 be 74 3a c1 be 48 40 c1 be
       -0.37719586 -0.37729934 -0.3773991 -0.37744355
0003d0 a5 58 c1 be 64 6c c1 be 2a 65 c1 be ad 82 c1 be
       -0.37762943 -0.37778008 -0.37772495 -0.3779501
0003e0 02 7b c1 be ef 82 c1 be f2 d0 94 be 7b 8d 94 be
       -0.3778916 -0.37795207 -0.29065663 -0.2901419
0003f0 5a 80 94 be 28 97 94 be 7e 7e 94 be af bd 94 be
       -0.29004174 -0.29021573 -0.29002756 -0.29050967

exp_avg_sq f4 [40, 1, 25, 1]
000000 9d ca 0c 41 2c c9 0c 41 2b c7 0c 41 92 c4 0c 41
       8.799466 8.799114 8.798625 8.797991
000010 d3 c0 0c 41 ee bd 0c 41 01 ba 0c 41 2c b6 0c 41
       8.797076 8.79637 8.795411 8.794476
000020 19 b4 0c 41 5d b2 0c 41 36 b1 0c 41 42 ae 0c 41
       8.793969 8.793546 8.793264 8.792543
000030 91 aa 0c 41 f4 a6 0c 41 2b a3 0c 41 c8 a0 0c 41
       8.791642 8.79076 8.789836 8.789253
000040 9c 9e 0c 41 c1 9c 0c 41 cb 9b 0c 41 d7 9b 0c 41
       8.788723 8.78827 8.788035 8.788047
000050 77 9c 0c 41 8f 9d 0c 41 ea a0 0c 41 4d a0 0c 41
       8.788199 8.788466 8.789286 8.789136
000060 e5 9e 0c 41 8c 17 6e 40 d4 17 6e 40 d7 17 6e 40
       8.788793 3.7201872 3.7202044 3.720205
000070 4b 18 6e 40 ae 16 6e 40 fa 16 6e 40 0a 19 6e 40
       3.7202327 3.7201343 3.7201524 3.7202783
000080 0f 1b 6e 40 62 1c 6e 40 f5 1d 6e 40 6d 1f 6e 40
       3.7204015 3.7204823 3.7205784 3.720668
000090 14 1b 6e 40 64 17 6e 40 92 15 6e 40 87 11 6e 40
       3.7204027 3.7201777 3.7200665 3.7198198
0000a0 54 0f 6e 40 75 11 6e 40 43 14 6e 40 fa 18 6e 40
       3.7196856 3.7198155 3.7199867 3.7202744
0000b0 a6 1d 6e 40 29 20 6e 40 6c 22 6e 40 4f 27 6e 40
       3.7205596 3.720713 3.720851 3.7211492
0000c0 da 25 6e 40 ea 22 6e 40 b3 2d ea 3f 4c 29 ea 3f
       3.7210603 3.720881 1.8295196 1.8293853
0000d0 87 21 ea 3f 10 1b ea 3f 40 12 ea 3f 9d 07 ea 3f
       1.8291482 1.8289509 1.828682 1.8283573
0000e0 c8 01 ea 3f 83 fe e9 3f 89 fe e9 3f 9b f7 e9 3f
       1.8281794 1.8280796 1.8280803 1.8278688
0000f0 76 f1 e9 3f 3a e8 e9 3f c4 d9 e9 3f 09 d5 e9 3f
       1.8276813 1.8273995 1.8269582 1.8268138
000100 07 cd e9 3f 79 c6 e9 3f 6d c6 e9 3f af c6 e9 3f
       1.8265694 1.8263694 1.826368 1.8263758
000110 ab cd e9 3f f9 d4 e9 3f c0 d9 e9 3f a6 da e9 3f
       1.826589 1.8268119 1.8269577 1.8269851
000120 7b e1 e9 3f 7a e7 e9 3f 66 eb e9 3f a4 85 ed 40
       1.8271936 1.8273766 1.8274963 7.4225636
000130 3b 81 ed 40 6d 7b ed 40 02 74 ed 40 4d 69 ed 40
       7.422025 7.4213166 7.420411 7.419104
000140 52 5f ed 40 8a 56 ed 40 22 4f ed 40 45 4b ed 40
       7.417886 7.416814 7.41591 7.415438
000150 36 46 ed 40 d5 41 ed 40 5b 39 ed 40 20 2e ed 40
       7.4148207 7.414286 7.4132514 7.4118805
000160 03 26 ed 40 54 1d ed 40 61 17 ed 40 71 14 ed 40
       7.41089 7.40983 7.409104 7.4087453
000170 f9 11 ed 40 8e 12 ed 40 ae 14 ed 40 e1 16 ed 40
       7.408444 7.408515 7.4087744 7.409043
000180 0f 19 ed 40 61 1d ed 40 5a 1b ed 40 19 1a ed 40
       7.409309 7.4098363 7.409589 7.4094357
000190 3f b9 0c 40 6b ba 0c 40 7c bc 0c 40 cb bd 0c 40
       2.1988065 2.198878 2.1990042 2.199084
0001a0 d3 bf 0c 40 94 c0 0c 40 ba c1 0c 40 50 c1 0c 40
       2.199208 2.199254 2.1993241 2.1992989
0001b0 fc c1 0c 40 52 c2 0c 40 f0 c2 0c 40 db c4 0c 40
       2.1993399 2.1993604 2.199398 2.199515
0001c0 af c6 0c 40 a4 c8 0c 40 ef c9 0c 40 06 ca 0c 40
       2.1996267 2.1997461 2.199825 2.1998305
0001d0 ff ca 0c 40 f5 ca 0c 40 57 ca 0c 40 df c9 0c 40
       2.19989 2.1998875 2.1998498 2.1998212
0001e0 5c c8 0c 40 80 c4 0c 40 9c c4 0c 40 4b c4 0c 40
       2.199729 2.1994934 2.1995 2.1994808
0001f0 95 c1 0c 40 21 08 0c 41 94 05 0c 41 0e 02 0c 41
       2.1993153 8.751985 8.751362 8.750502
000200 9d fc 0b 41 69 f5 0b 41 15 ee 0b 41 e9 e7 0b 41
       8.749173 8.747415 8.7456255 8.744119
000210 8a e2 0b 41 b9 df 0b 41 fe dc 0b 41 c5 da 0b 41
       8.742807 8.74212 8.741453 8.740911
000220 0b d6 0b 41 76 d0 0b 41 b8 ca 0b 41 f1 c5 0b 41
       8.739757 8.738394 8.736992 8.735826
000230 e1 c2 0b 41 43 c0 0b 41 62 bd 0b 41 bc bb 0b 41
       8.735078 8.734439 8.733736 8.733334
000240 9f bb 0b 41 58 bc 0b 41 6b bd 0b 41 6b c0 0b 41
       8.733306 8.733482 8.733745 8.734477
000250 1a bf 0b 41 40 be 0b 41 51 51 6b 40 30 4d 6b 40
       8.734156 8.733948 3.6768382 3.6765862
000260 70 48 6b 40 8c 45 6b 40 43 40 6b 40 f2 3c 6b 40
       3.6762962 3.6761198 3.6757972 3.6755948
000270 c4 37 6b 40 b3 30 6b 40 e3 2d 6b 40 9e 2a 6b 40
       3.6752787 3.6748474 3.6746757 3.6744761
000280 57 27 6b 40 f7 25 6b 40 25 23 6b 40 ff 21 6b 40
       3.674276 3.6741922 3.67402 3.67395
000290 4b 20 6b 40 64 1e 6b 40 87 1a 6b 40 0d 18 6b 40
       3.673846 3.67373 3.673494 3.673343
0002a0 95 15 6b 40 33 14 6b 40 af 13 6b 40 92 12 6b 40
       3.6731923 3.6731079 3.6730764 3.6730084
0002b0 94 15 6b 40 ac 14 6b 40 e9 0f 6b 40 c1 e6 13 41
       3.673192 3.6731367 3.672846 9.243836
0002c0 6f e4 13 41 e6 e0 13 41 5b db 13 41 f7 d3 13 41
       9.24327 9.242407 9.241054 9.239249
0002d0 d4 cc 13 41 77 c5 13 41 15 bf 13 41 51 bc 13 41
       9.237507 9.235709 9.234151 9.233476
0002e0 02 b9 13 41 c6 b6 13 41 30 b2 13 41 ce ac 13 41
       9.232668 9.232122 9.231003 9.229689
0002f0 a7 a6 13 41 cd a0 13 41 60 9d 13 41 00 9b 13 41
       9.228187 9.226758 9.225922 9.225342
000300 03 98 13 41 03 96 13 41 d8 95 13 41 46 96 13 41
       9.224612 9.224124 9.224083 9.224188
000310 44 97 13 41 c9 99 13 41 8f 97 13 41 97 96 13 41
       9.22443 9.225045 9.224502 9.224265
000320 11 0b a5 40 1f 0a a5 40 8a 07 a5 40 eb 03 a5 40
       5.157601 5.1574855 5.1571703 5.1567283
000330 1c fe a4 40 e3 f7 a4 40 d3 f3 a4 40 05 f0 a4 40
       5.156019 5.1552596 5.1547637 5.1542993
000340 bb ee a4 40 2f ed a4 40 41 ec a4 40 98 e9 a4 40
       5.154142 5.153953 5.1538396 5.153515
000350 42 e6 a4 40 78 e3 a4 40 ac e0 a4 40 30 df a4 40
       5.1531076 5.152767 5.152426 5.1522446
000360 df de a4 40 1b de a4 40 bd de a4 40 de e0 a4 40
       5.152206 5.1521125 5.1521897 5.1524496
000370 44 e2 a4 40 ea e3 a4 40 c2 e6 a4 40 35 e5 a4 40
       5.1526203 5.1528215 5.1531687 5.1529794
000380 29 e3 a4 40 39 04 e9 3f 34 04 e9 3f 3f 05 e9 3f
       5.1527295 1.8204414 1.8204408 1.8204726
000390 dc 02 e9 3f 9d 01 e9 3f 5e ff e8 3f 9a ff e8 3f
       1.8203998 1.8203617 1.8202932 1.8203003
0003a0 65 00 e9 3f bf ff e8 3f 10 01 e9 3f 07 03 e9 3f
       1.8203245 1.8203048 1.8203449 1.8204049
0003b0 b8 04 e9 3f 33 08 e9 3f d8 0c e9 3f 15 10 e9 3f
       1.8204565 1.8205627 1.8207045 1.8208033
0003c0 0a 15 e9 3f 49 14 e9 3f a4 12 e9 3f 03 12 e9 3f
       1.8209546 1.8209316 1.8208814 1.8208622
0003d0 00 10 e9 3f ea 0d e9 3f 23 0b e9 3f 83 0d e9 3f
       1.8208008 1.8207371 1.8206524 1.8207248
0003e0 69 0d e9 3f e2 0d e9 3f c6 ba 19 41 db b7 19 41
       1.8207217 1.8207362 9.608099 9.607387
0003f0 67 b4 19 41 99 af 19 41 3c a9 19 41 f7 a3 19 41
       9.606544 9.6053705 9.603817 9.6025305

exp_avg f4 [40]
000000 9c 4b 88 b7 e6 5b d7 b7 c8 89 65 36 27 60 d5 36
       -1.6247672e-05 -2.567279e-05 3.4203858e-06 6.3590883e-06
000010 80 e5 f0 37 f8 6f 69 36 86 bd 7f b7 7b 8e 41 36
       2.8717099e-05 3.478488e-06 -1.5243311e-05 2.8842176e-06
000020 61 5b a1 b6 a3 95 f5 b7 d9 55 9d b7 41 a5 5f b7
       -4.808812e-06 -2.9275956e-05 -1.8755834e-05 -1.3330312e-05
000030 e8 0b 76 36 3b ef 2d b6 62 54 a1 34 b3 65 7a b7
       3.6663787e-06 -2.591826e-06 3.0049983e-07 -1.492484e-05
000040 8d 58 e3 37 f0 26 e0 36 6b 97 b6 b5 1d ae 1a b7
       2.7101743e-05 6.680253e-06 -1.3604125e-06 -9.219654e-06
000050 83 06 39 b8 c4 e8 60 37 14 39 00 38 ab f9 e7 37
       -4.41135e-05 1.3405635e-05 3.0570736e-05 2.7653607e-05
000060 5a d9 95 37 94 f5 04 b8 36 f2 6d 37 af e8 dd b7
       1.7863396e-05 -3.1699965e-05 1.4182695e-05 -2.6453605e-05
000070 9c 61 2e b7 21 fe f1 36 14 43 50 36 a0 74 5b b7
       -1.0393935e-05 7.211944e-06 3.103346e-06 -1.3080571e-05
000080 24 1b 31 b6 5d b9 3c 37 4c 14 c3 b5 6c 31 62 37
       -2.6390853e-06 1.12488315e-05 -1.4534539e-06 1.3482157e-05
000090 5e b9 2e 37 13 a3 a6 37 fb 7c 0f 36 cf 9d e3 b6
       1.0414367e-05 1.986468e-05 2.1381409e-06 -6.7834985e-06

exp_avg_sq f4 [40]
000000 fb f6 3c 32 8d 82 1b 33 ea d3 dc 32 68 7c 92 32
       1.0999197e-08 3.6207485e-08 2.5707738e-08 1.705321e-08
000010 7a ac 97 33 a8 2f bc 33 47 ba 26 33 80 6c 84 33
       7.062859e-08 8.763101e-08 3.8819305e-08 6.166465e-08
000020 b6 c4 a7 32 80 27 e7 31 6c b9 99 32 1e bd c6 32
       1.9530813e-08 6.7274755e-09 1.7895864e-08 2.3136234e-08
000030 c2 67 09 33 03 88 a0 32 aa d3 00 32 0b 73 28 34
       3.1992165e-08 1.8688302e-08 7.498707e-09 1.5688072e-07
000040 77 f2 35 33 9f f1 17 33 2b 07 b5 32 2b 1e ab 31
       4.2362867e-08 3.537718e-08 2.1074433e-08 4.9801847e-09
000050 9c 8b 28 33 93 34 5f 32 33 b4 3a 33 16 0d 1e 32
       3.9242522e-08 1.2992262e-08 4.347039e-08 9.199786e-09
000060 f6 4e 87 32 98 0e 36 32 a9 b3 f0 31 9a 1b cb 31
       1.5751976e-08 1.05971125e-08 7.0053443e-09 5.9112155e-09
000070 fb 11 f4 30 92 23 fd 32 2f 3d ef 31 d8 e6 db 32
       1.7758447e-09 2.9469252e-08 6.9627712e-09 2.5599931e-08
000080 a0 8e 7b 32 3e 07 9d 32 e4 32 fc 33 00 c9 6b 32
       1.4642552e-08 1.8280499e-08 1.17439214e-07 1.3724502e-08
000090 4e 55 3e 32 c6 3a 07 33 26 3c 25 32 db 61 89 32
       1.1078852e-08 3.148559e-08 9.61794e-09 1.5993399e-08

exp_avg f4 [40, 40, 1, 36]
000000 0c ae 73 b8 75 80 24 b8 4b fa 80 b8 75 5a 18 38
       -5.809781e-05 -3.9220282e-05 -6.150136e-05 3.632387e-05
000010 c0 71 bd 36 68 8e 91 37 45 13 85 37 de 9c 3a b5
       5.645881e-06 1.735166e-05 1.5863809e-05 -6.951867e-07
000020 d9 8f 90 b7 62 3a cf b7 70 34 04 b9 25 45 7b 38
       -1.7233122e-05 -2.470351e-05 -0.00012608035 5.990746e-05
000030 59 bc 28 b8 74 94 b0 37 1c 36 8e b7 13 b6 be 36
       -4.0229734e-05 2.1049964e-05 -1.6952916e-05 5.6836375e-06
000040 66 69 d0 b7 7a 7b 07 37 b4 4e ed b7 32 e7 59 37
       -2.4844612e-05 8.075376e-06 -2.828925e-05 1.2988037e-05
000050 6a 54 be 36 3e e5 a4 38 ab 46 8f b9 ff 19 94 b8
       5.6722683e-06 7.862829e-05 -0.00027327737 -7.062032e-05
000060 02 00 22 38 61 22 94 39 d3 53 42 38 38 4d 08 39
       3.8623817e-05 0.00028254374 4.633127e-05 0.00012998737
000070 e3 69 21 38 14 d5 e0 38 88 aa f0 b8 27 b5 66 38
       3.8484006e-05 0.00010720841 -0.00011475856 5.5004984e-05
000080 d1 05 86 b8 7a 3b db bb 53 77 8d 3a 04 f0 ea bd
       -6.390701e-05 -0.00669044 0.0010793008 -0.114715606
000090 ab 04 cf b7 e3 e4 5a b7 fa e1 31 b8 2f 27 2b 38
       -2.4678497e-05 -1.3047104e-05 -4.2410546e-05 4.080607e-05
0000a0 bf 63 dd b7 d3 a3 e1 37 fd 15 ec b6 44 74 88 36
       -2.63917e-05 2.6898377e-05 -7.035908e-06 4.066651e-06
0000b0 bb 90 17 37 53 a7 9e 36 90 21 81 b8 20 4e 81 38
       9.033999e-06 4.728246e-06 -6.157451e-05 6.165751e-05
0000c0 4b d2 0f b7 d4 10 30 38 44 64 8a 37 eb 36 fc 37
       -8.572427e-06 4.1977342e-05 1.6497572e-05 3.0066314e-05
0000d0 f4 64 a4 37 06 8e 16 38 09 d7 7b b7 09 d8 8f b6
       1.9597333e-05 3.5895056e-05 -1.5010833e-05 -4.286882e-06
0000e0 83 c3 90 b7 db 74 9f 38 d3 7c 20 b9 ca 8f ca b8
       -1.725718e-05 7.603477e-05 -0.0001530529 -9.6588934e-05
0000f0 bd bc fd 37 dc 8a 14 39 c3 e0 30 37 05 5e 8d 38
       3.0247838e-05 0.00014166109 1.0542749e-05 6.7409164e-05
000100 b5 e6 cf 37 6b fe 57 38 25 7e 3d b8 b7 a9 82 38
       2.4783754e-05 5.149694e-05 -4.5178593e-05 6.230495e-05
000110 a9 47 5b b8 d2 6d aa bb 4f 3d 3d 3a af 6e a4 bd
       -5.2280408e-05 -0.00520108 0.00072189135 -0.08028924
000120 d3 b8 44 38 c0 d3 e7 37 b0 cc 3b 38 1a 15 30 b8
       4.6902172e-05 2.763595e-05 4.4774904e-05 -4.1981322e-05
000130 88 83 b3 b7 9f a0 b1 b7 89 0d e4 b7 43 3c 93 b6
       -2.1399712e-05 -2.117484e-05 -2.718602e-05 -4.387957e-06
000140 ba 30 3f 37 9f 0f 9e 37 cf 45 ec 38 14 ca 9a b8
       1.1395832e-05 1.8842342e-05 0.0001126636 -7.380932e-05
000150 cf 66 e2 37 a0 10 fe b7 07 98 3c 37 42 ab 4a b7
       2.6989173e-05 -3.0286901e-05 1.124107e-05 -1.2080012e-05
000160 5d 45 88 37 2b bb 9a b7 df e2 bf 37 6d d4 70 b7
       1.6244763e-05 -1.8445387e-05 2.287462e-05 -1.4354574e-05
000170 58 3b 66 b7 0b 09 c0 b8 4e 97 88 39 5c ce 87 38
       -1.3722885e-05 -9.156958e-05 0.00026052672 6.475739e-05
000180 2b 6e 1c b8 38 9c 97 b9 97 ef 76 b8 a5 4d ec b8
       -3.72959e-05 -0.00028917356 -5.8874106e-05 -0.00011267819
000190 ce 91 d7 b7 f4 1b c6 b8 f0 46 d8 38 40 a7 91 b8
       -2.5697893e-05 -9.4465824e-05 0.00010312896 -6.9452915e-05
0001a0 99 86 38 38 ff 28 d2 3b d5 75 88 ba 95 b8 e5 3d
       4.3994372e-05 0.0064135785 -0.0010411093 0.11216847
0001b0 9c 9c 04 b8 49 7d 30 b7 fe a2 3b b8 1a 2c 26 38
       -3.1617106e-05 -1.0519588e-05 -4.4736073e-05 3.9618557e-05
0001c0 e4 45 5f b6 73 27 1c 37 8d 33 e5 36 1a eb b7 36
       -3.3270271e-06 9.30751e-06 6.830733e-06 5.4811944e-06
0001d0 96 52 bd 33 ab b7 3d 36 82 c8 b4 b8 08 42 8d 38
       8.8160206e-08 2.8270103e-06 -8.620416e-05 6.735703e-05
0001e0 8d 39 b1 b7 bd ff 0b 38 5a dd 5a 36 40 3f da 37
       -2.1126843e-05 3.3378357e-05 3.2613375e-06 2.6017078e-05
0001f0 8f c9 90 36 b0 cc 05 38 9b b7 81 b7 13 eb e1 36
       4.314999e-06 3.19003e-05 -1.5463496e-05 6.732889e-06
000200 8f 72 58 35 c8 b9 ba 38 12 3d 58 b9 79 6a 64 b8
       8.0632975e-07 8.9037756e-05 -0.00020622116 -5.4458596e-05
000210 7f 79 1f 38 d7 9e 65 39 05 fd d3 37 10 35 a4 38
       3.8021706e-05 0.00021898314 2.5270981e-05 7.830013e-05
000220 db 50 16 37 70 17 7c 38 2a 51 9b b8 42 e1 91 38
       8.959522e-06 6.010331e-05 -7.406094e-05 6.956096e-05
000230 d9 c9 d6 b8 51 24 e6 bb f9 0a 78 3a ca da d6 bd
       -0.00010241912 -0.007023372 0.0009462084 -0.104909495
000240 25 2a 30 b8 d1 47 a6 b7 43 64 25 b8 0a a3 62 38
       -4.200092e-05 -1.9822184e-05 -3.943244e-05 5.403444e-05
000250 4c 14 cd 37 6b c2 18 38 53 4f 24 38 63 9a 83 37
       2.4447356e-05 3.642069e-05 3.9174523e-05 1.5688309e-05
000260 be 72 31 37 01 1a b4 b1 ca 55 bb b8 fd a9 c6 38
       1.0576738e-05 -5.241646e-09 -8.932834e-05 9.4730385e-05
000270 34 6b 45 b6 5b 07 69 38 40 78 84 37 fa 77 19 38
       -2.9417688e-06 5.555838e-05 1.5791622e-05 3.658978e-05
000280 88 46 4f 37 52 7d 40 38 94 18 d2 b7 30 86 7a 37
       1.2354583e-05 4.589308e-05 -2.5045396e-05 1.4932404e-05
000290 6b b5 93 37 bb ee e9 38 44 3c 7e b9 11 e8 8e b8
       1.7608245e-05 0.00011154773 -0.00024245778 -6.8143134e-05
0002a0 03 ca 25 38 b3 0a 8f 39 17 80 9a 38 d4 4d f5 38
       3.9527204e-05 0.00027283057 7.367151e-05 0.00011697007
0002b0 9c 42 1c 38 86 15 d4 38 a2 50 9d b8 ab 2a be 38
       3.7255333e-05 0.00010112957 -7.5013624e-05 9.0678535e-05
0002c0 25 08 e5 37 21 f3 c8 bb e7 31 88 3a 9f f4 e1 bd
       2.730272e-05 -0.006132499 0.0010390849 -0.11032986
0002d0 c4 dd 0e 36 1a f0 de b7 a5 ef e8 37 25 d1 d3 b8
       2.1288733e-06 -2.6576268e-05 2.7768148e-05 -0.0001010022
0002e0 76 18 5a b7 59 d1 92 b8 60 05 47 b8 cb b8 3b b8
       -1.2999508e-05 -7.0008165e-05 -4.7450303e-05 -4.4756376e-05
0002f0 8f f3 8e b8 75 8a 82 b8 0f d5 13 38 5b b5 33 b9
       -6.816454e-05 -6.224673e-05 3.5245957e-05 -0.0001713833
000300 4a 2e 55 b8 40 11 09 b9 12 83 b0 b8 2c 17 e4 b8
       -5.0826267e-05 -0.00013071764 -8.416748e-05 -0.00010876203
000310 61 ed cd b8 2d fa 06 b9 3e 80 8e 37 ef cd cf b6
       -9.819377e-05 -0.00012872434 1.6987437e-05 -6.1930546e-06
000320 e2 8a 40 b7 fb 05 4e b9 a5 ce 55 39 a9 e8 dd 38
       -1.1476428e-05 -0.00019647919 0.00020390244 0.000105814375
000330 2f 37 6e b8 8b 16 88 b9 65 a3 d1 b8 c7 21 c0 b8
       -5.6795016e-05 -0.00025956737 -9.996331e-05 -9.161565e-05
000340 54 e1 a0 b7 f3 23 ae b8 ad 6b ac 36 67 fd 39 b9
       -1.9178413e-05 -8.3036626e-05 5.1385346e-06 -0.00017737375
000350 8b bc 35 b9 2a ab 00 3c d0 89 97 ba 2b a0 03 3e
       -0.00017331743 0.007853309 -0.0011561457 0.12854068
000360 a3 fa 03 b8 5a 48 22 b7 b7 bc f8 b7 89 14 28 37
       -3.1466257e-05 -9.672798e-06 -2.9651781e-05 1.00183615e-05
000370 08 79 5c b7 46 06 aa b7 fa 3e 4c b7 3b ab 1c b7
       -1.3141202e-05 -2.02685e-05 -1.217401e-05 -9.338192e-06
000380 27 e8 9f b7 30 fa 40 b7 c7 84 91 b8 50 30 8d 37
       -1.9062381e-05 -1.1502343e-05 -6.9388705e-05 1.6831007e-05
000390 c1 c3 13 b8 32 ab 03 b7 11 52 9e b7 b1 1c 98 34
       -3.522984e-05 -7.848068e-06 -1.8873283e-05 2.8333082e-07
0003a0 7b 17 a8 b7 11 8c 07 b5 91 b5 f5 b6 86 78 02 35
       -2.0038095e-05 -5.049524e-07 -7.322706e-06 4.860416e-07
0003b0 a0 83 0e b7 f9 de 03 38 c0 5d 0d b9 d6 8b 8d b8
       -8.494506e-06 3.1440493e-05 -0.00013481732 -6.7494504e-05
0003c0 c2 e6 c9 37 64 a1 1b 39 8a 82 44 38 19 58 47 38
       2.4068522e-05 0.00014842075 4.6851615e-05 4.7527345e-05
0003d0 c5 7d f0 b5 a1 3d c9 37 c7 1a 81 b8 9c cd 9e 37
       -1.7917997e-06 2.3989765e-05 -6.156187e-05 1.8930812e-05
0003e0 9c af bc b8 ba cb 59 bb a7 18 06 3a 50 e5 58 bd
       -8.9972484e-05 -0.0033233003 0.0005115368 -0.052953064
0003f0 ca 4c 18 35 f7 cb 9d b3 9f 75 03 b6 6d d6 48 38
       5.6736155e-07 -7.347983e-08 -1.9588986e-06 4.7883415e-05
